best_mpnn.pt (torch, 76761 bytes, 22 tensors)

layers.0.message_mlp.0.weight f4 [64, 16]
00000000: 1800 ff3c 1038 9abd 5a31 30bd a427 1fbe
00000010: 2795 04be 4d38 543e 1fec 5dbd e8a4 193e
00000020: 4a59 f6bd b10b 5cbe 58f5 17be 93d9 1c3c
00000030: 3d83 2c3e 07e1 3bbe ba21 2c3e c109 333e
00000040: 41af d5bc 53d8 ffbd 6971 293e be37 ca3c
00000050: 75a9 59be 2763 c8bd 8a18 413e ca49 d7bb
00000060: 1be8 46be e2f9 6d3e 2323 b63d 8b98 aa3c
00000070: ece5 ec3d b723 fbbd 2342 8abd d6d8 563e
00000080: 4233 bcbd 4d36 eebd fec1 bebd 5c13 afbd
00000090: 0650 5dbd d6b5 2bbe de83 62be 0fe2 22be
000000a0: d1b0 b73d 89db 65be b852 a4bd 0a9b 15be
000000b0: 011d eabd 0116 abbd 0c04 ae3d e1e6 493e
000000c0: a30e 4abe e235 20be 68f1 5bbe 689d 403e
000000d0: 349b 1c3e f32d 31be d0f6 81be e544 483b
000000e0: 3d89 df3c 2828 1c3e 8bea 5fbe 5a5e 2c3e
000000f0: 2029 15bd f8be 8b3d 0ae0 733e e5bd 633e
00000100: ef95 2a3e 1483 293d fee4 493e 78fe 11be
00000110: 9b91 a2bd 4f79 57be 9ab4 003c c763 d4bd
00000120: d415 6ebd 2ea7 103d b689 2bbe f933 413e
00000130: 5bb8 f039 c829 2f3e 946b 73be 9543 303c
00000140: fae3 49be 2d91 d93d 9e9f 803e 010e fc3d
00000150: 6dfd 64be b184 003e 9494 1e3d 2f90 12be
00000160: 0bb5 f1bd d424 4c3e a2a8 76be 847a c0bd
00000170: a71c b0bd bea3 1d3e ea71 df3d ccdd 03be
00000180: 86d2 79be e0bc 573c f8af b4bd 48ba 883d
00000190: ea06 7f3e dd1f 45bd a9bf c1bd 708c 82be
000001a0: e958 c53d bb89 83bd 589e 7bbe 12f6 7cbe
000001b0: e2e4 16bd 54cf e3bd f259 4fbe 8782 1f3e
000001c0: 4227 233e accb 49be ba24 103e d85d 2ebe
000001d0: 78ae 4b3e 8520 ccbd d618 dfbd 403c 0a3e
000001e0: 38a9 4dbd 4705 3abe 2ca0 9fbd 4862 50be
000001f0: f7b1 67bb 86e5 32be 90fe 18bb 99cc 3e3e
00000200: 366d 17bd 0c10 0b3b 421f 2dbc a231 d33d
00000210: 3b59 78be 6b35 bf3d aadb 503c 39bd 5f3d
00000220: 6d80 f83d 1b90 d03d e5cf 293d e0f5 ffbd
00000230: a218 89bc 4e20 32be b433 0e3d b8e4 5ebe
00000240: ea20 70be 16a6 92bd 0350 fdbd 9c35 60bd
00000250: dc9a 03be d5b3 0b3e 1939 e43d 7154 55bd
00000260: dd70 02be 6f90 2dbe 1f49 0dbe 2a25 56bc
00000270: 0d09 623d 6612 66be 59fd 4bbe 701c 233e
00000280: 187f 7d3e 0ca0 493e 717d 7bbe 7ff6 523e
00000290: 2c17 383e 3336 5e3e fe3c d6bc c1b9 00be
000002a0: 43f1 573e 1c7f 2d3e b141 a3bd f918 46bd
000002b0: 539d 26be 2301 753e cdc1 1fbe d6e0 77be
000002c0: 952a f33c 8893 31be 21f2 753e fa4a 153e
000002d0: 4499 36bd 05d5 60be 9c1a 01be 468e 28be
000002e0: cf27 7c3d 0ebf 45bd 9ce9 ccbd 99c2 533d
000002f0: 7a38 25be 1c6e 04be 90c1 b8bd a1a0 9dbc
00000300: 9af3 17bc c998 b83d bfa6 01be 0b71 613e
00000310: 5f72 db3d abfa f4bc c6a6 973d 348d 813e
00000320: b125 673e 7bf9 5e3e 6f1b e0bd 5993 79be
00000330: 0ab3 10be 00ed 45be d996 16bd e78f afbd
00000340: 285a 6b3e 78db b83d 5662 6fbe 0d59 043e
00000350: 4372 d03d 62a8 203e 753e 37be 44a3 72be
00000360: fe5d 69be abf9 693e 683b 583e e989 9a3d
00000370: a152 c9bd e4d0 06be 77e6 25be 70ae e73d
00000380: e8f9 c4ba f334 01be 6ae8 a5bc f846 dfbd
00000390: 0d2b 633e c62e 8a3c b101 733d 612c e83c
000003a0: dedc 0b3e 5cd1 2dbe 4ff5 383e 1926 f3bd
000003b0: 8b11 0c3e 0f32 a63d 702b 713e 8cb2 ac3d
000003c0: fe52 1fbe 96bb 44be 7832 05bd eb6f e2bd
000003d0: 178c ddb9 af99 cf3d 5427 f33d cfe8 3bbe
000003e0: cbf8 debd eeae 8c3d e9a7 2ebe 7174 aabd
000003f0: 7cfc 02bd 9a00 ef3d 3eac 0e3e 93ef 373e
0.031127974 -0.07530224 -0.043015815 -0.15542465 -0.12947522 0.20724602 -0.05418026 0.15004313
-0.12028749 -0.21488835 -0.14839685 0.009573358 0.16846938 -0.1834756 0.1680974 0.1748419
-0.026084544 -0.124924324 0.16547169 0.024684783 -0.21256049 -0.09784537 0.18857017 -0.0065700756
-0.19424479 0.23239854 0.088934205 0.020824691 0.115672916 -0.122626714 -0.06750896 0.20981154
-0.09189464 -0.11631451 -0.09314345 -0.085486144 -0.054031394 -0.16768584 -0.22120616 -0.15906547
0.08969272 -0.22447027 -0.0802359 -0.14609924 -0.11431313 -0.08353806 0.08496866 0.1971698
-0.19732146 -0.15645555 -0.21478808 0.18810046 0.1529358 -0.17302684 -0.25383615 0.0030558642
0.02728712 0.15249693 -0.21866815 0.16832867 -0.036416173 0.06823534 0.23815933 0.22240408
0.16658758 0.04138477 0.1971626 -0.14257228 -0.07937928 -0.2104237 0.007855559 -0.103705935
-0.058126286 0.035315685 -0.16751751 0.18867482 0.00045913723 0.17105782 -0.23771507 0.0107583
-0.19715872 0.10623393 0.25121778 0.123073585 -0.223623 0.12550618 0.038715914 -0.14312814
-0.11802109 0.19935924 -0.24087766 -0.09398368 -0.08599215 0.15394494 0.10910399 -0.12877578
-0.24396715 0.01316759 -0.08822626 0.06676155 0.24904981 -0.04812609 -0.094603844 -0.2549777
0.09636099 -0.064227544 -0.24572122 -0.24703243 -0.036839373 -0.11123529 -0.20249155 0.15577136
0.15932944 -0.19706601 0.1407651 -0.17027986 0.19890773 -0.0996714 -0.10893409 0.13499546
-0.050210208 -0.18166076 -0.07794222 -0.20349991 -0.0035353878 -0.17470369 -0.002334509 0.18632735
-0.036969386 0.0021219281 -0.0105665345 0.10312201 -0.24252789 0.093363605 0.0127476845 0.054623816
0.1213387 0.10183736 0.04145803 -0.12498069 -0.016735379 -0.17395136 0.034717277 -0.21766937
-0.23450056 -0.07160585 -0.12368777 -0.054738626 -0.12852043 0.13642819 0.11143703 -0.052082483
-0.12738366 -0.16949628 -0.13797425 -0.013070384 0.055184413 -0.22467956 -0.19920863 0.15928817
0.24755514 0.1968996 -0.24559571 0.20601843 0.1797759 0.21700363 -0.02615213 -0.1257086
0.21088128 0.1694302 -0.07971514 -0.04836366 -0.16270952 0.23926215 -0.15601273 -0.24206862
0.02968339 -0.17341435 0.24018146 0.14579383 -0.04457976 -0.2195626 -0.12607807 -0.16460523
0.061561402 -0.048277907 -0.10005495 0.051699255 -0.16134825 -0.12932628 -0.09021294 -0.019241633
-0.009274388 0.090135165 -0.12661265 0.22015779 0.10715174 -0.029904684 0.074048564 0.25303042
0.22572972 0.21774857 -0.109427325 -0.24372615 -0.14130798 -0.1932869 -0.036764953 -0.08572369
0.2298361 0.09026235 -0.23377356 0.12924595 0.10178044 0.15689233 -0.17894919 -0.23695093
-0.22789761 0.22849147 0.21116412 0.075458355 -0.09830213 -0.13165623 -0.16201197 0.11312568
-0.0015028091 -0.12617855 -0.020252425 -0.10902208 0.22184391 0.016868006 0.059327785 0.028341474
0.13658473 -0.16974396 0.18062328 -0.11872501 0.13678567 0.08115017 0.23551726 0.084324926
-0.15559003 -0.19212183 -0.032518834 -0.11056503 -0.0004225678 0.10136735 0.118727356 -0.18350528
-0.10887297 0.06869303 -0.1705624 -0.08322991 -0.03197907 0.116700366 0.13932893 0.17962484

layers.0.message_mlp.0.bias f4 [64]
00000000: 9b27 39be a64e 3b3e 313c 52bd 8a91 343e
00000010: eadf 14be f87b c2bc a046 333e 5a25 3a3e
00000020: e18b 453e 678b 1fbe 2c1c 703d 1087 5e3d
00000030: a798 373e 277f ee3d ce0b 593e 0894 123d
00000040: 727c d4bd 6a5d 03bc 29a7 1c3e cf4f 63bc
00000050: 7312 63be a89c 0c3d a077 75be db99 d53c
00000060: 0180 72be b3a3 4f3e 89b6 fe3d 51f4 983c
00000070: fcdf 063e 656c 90bd be23 b5bb 5da6 cbbd
00000080: 2b8f ddbc e6c4 14be c3c4 74be 30a5 ec3c
00000090: 4432 773e 8d9a 41be cb26 46be 6072 1c3e
000000a0: 0d90 cbbd 8651 2d3e e365 aa3d 80ee 373e
000000b0: 5ddd 8b3d e915 fe3d 74ef 23be e12c c03d
000000c0: 69ef 543e 2df9 eabd ae3b 54be e4b6 093e
000000d0: 1a99 1e3e c56a 893d 7532 073e 6d04 783c
000000e0: f8af 81be 8dcc 573e fc0e 33be e9dd f7bd
000000f0: bf6a c3bd 9979 71be fcd2 0a3e db12 5f3e
-0.18081515 0.18291721 -0.051326934 0.17633644 -0.14538541 -0.023740754 0.1750741 0.18178311
0.19291641 -0.15580522 0.058620617 0.054328024 0.17929326 0.11645346 0.2119591 0.035785705
-0.103752986 -0.008017877 0.15298142 -0.013874008 -0.22175007 0.034329087 -0.23971415 0.02607434
-0.23681642 0.2027729 0.124371596 0.018671187 0.13171381 -0.070519246 -0.0055279424 -0.09943841
-0.027045807 -0.14528236 -0.23903184 0.028887361 0.24140269 -0.18906613 -0.19350736 0.15278006
-0.09939585 0.1692563 0.083202146 0.17962074 0.06829331 0.12406523 -0.16009313 0.0938356
0.20794453 -0.11473308 -0.20725891 0.13448673 0.15488091 0.06709818 0.13202842 0.015137774
-0.25329566 0.21074124 -0.17486185 -0.12102873 -0.095418446 -0.23581542 0.13557047 0.21784537

layers.0.message_mlp.2.weight f4 [64, 64]
00000000: 1b05 8f3a f20d 8f3d 32a2 e93d 7436 e03d
00000010: dd39 d9bd 07df 8a3d 9b85 94bd c114 fc3c
00000020: d3b6 8abd 85ff 4dbd 185b ffbd 3932 eabc
00000030: 124a c4bc 254e 39bd 8c37 dabd 13fa 3b3d
00000040: 3209 283d c36b ed3d d868 c43d a004 05bd
00000050: 7a78 84bd 59ce 7ebc 3cb7 ae3d db8b d53c
00000060: f3ed c5bd 94d4 9f3d aff2 34bd afe2 913d
00000070: 4d8b 8cbd a0d6 943c ca41 e83d 0cc7 64bd
00000080: 7003 a33d 33b6 c3bd c28b cdbd 365e ac3d
00000090: a813 b73d b5e8 a0bd 67ac aa3d 5c34 583c
000000a0: 4d25 1a3d af25 943d 1ccf 1a3d a28c 283d
000000b0: cc48 953d c78e 98bd eeeb e0bd eb1f 36bd
000000c0: f73f a9bd 6317 d4bd 7f20 f3bd d163 63bd
000000d0: 1bec a7bd 1a42 91bd 60fb 05be e877 453d
000000e0: 180d 413d 74e9 c33d ecda 583c 9d92 2cbd
000000f0: ceb5 70bd 9f5d 883d 11a1 d33d b6d4 d5bd
00000100: f400 c93d 0b18 dc3d b1a8 bfbd 7b66 9c3b
00000110: e26f f63c e859 8f3c cfe1 5a3d 3136 04be
00000120: 76b0 6e3d 4e70 a03d 915a 973d ca08 bb3d
00000130: 05c5 043d a511 bbbd 163f 3dbc 001c 3f3d
00000140: 4620 83bd 7051 a339 5999 aa3d 25f4 e3bd
00000150: e82f d7bd 4f80 bfbc bafb 9e3d c712 97bd
00000160: 9a6d 9cbd 7788 81bc 88d4 d83d da11 7b3d
00000170: bb7b 15bd 98e9 27bd 83f1 26bc 2e22 ebbd
00000180: 6be6 8f3c 3cfb 76bd f2c5 88bd d37c d13b
00000190: 0ddf d83d c111 dabb cab9 84bd 6358 843d
000001a0: 98a4 79bd 9f88 e9bd aca7 0e3d 3a32 983d
000001b0: f28f a73d 62b7 b2bd 0957 2cbd 9ff6 b2bd
000001c0: d82d ec3d a101 353d e5fb fbbd 89dc 1cbd
000001d0: 8749 cebc 6560 d43d affd 93bd c1d9 10bc
000001e0: 5293 01be 97a9 a6bc 0b52 01bd 2e2a 2d3d
000001f0: 8bbd 19ba 17c4 a8bd bcc8 aebd d819 913d
00000200: 059b 01bc 9fce 8dbd dc16 963b 5470 cfbd
00000210: e933 31bd e559 e73b fe65 a1bd 323b 90bd
00000220: f910 e0bb a92d 453d 812b f33d 63e0 8d3d
00000230: 354b dabd 2e44 5b3d 4f04 cfbd 7c13 153d
00000240: d811 d83d 03fd 853d 1cb7 eabd 3baf f03c
00000250: 0d1e a03c 9610 e2bd 13de b23c 41e8 73bd
00000260: 5288 83bd d959 01bc b658 f13d c5ab f03b
00000270: bcda 233d b7d5 633d b2f0 023e 5c38 f0bd
00000280: 4008 063e 9b00 44bd 7597 083e f2ba c93d
00000290: d58d 01bc 29d5 a83c c1ff 8bbd 427b d0bd
000002a0: 5f6e 7f3d e52e a4bd a70a c43d fa3c dc3d
000002b0: 2cbb b23d 372d 103c a02d 713c abf2 063e
000002c0: bff3 bbbd 8e89 473d b135 bf3c 9857 c2bd
000002d0: 2b61 afbd 9896 a8bd 8314 fb3d 4f7d bd3d
000002e0: 253b 443c 68a0 303d ec5c aabd 6dc1 c43d
000002f0: 7c96 843d 69a8 f13d dafe 4e3d 586b 8c3d
00000300: 1cb8 a43d 34dd 02be 9f75 ca3b 2bc5 d13d
00000310: 56b1 eebc 1554 9bbd 7aba eabd e729 d63d
00000320: f477 123d 4886 9fbc e696 7e3d 9bbe 1ebc
00000330: 8edf 6f3d 824c e43d bf71 373d 1d66 693d
00000340: 3261 21bc 1bef 873d c671 b93d aa2d b2bd
00000350: 8891 9d3d 837b 34bd 5b2b 353d e5d8 a93d
00000360: a94a 90bd af96 d7bd 309e 94bd 5c70 973c
00000370: 3170 c13b 8be6 c0bd cbab 19bd d26c 00be
00000380: 7b89 bd3d 06d1 323c f294 ac3d 6bce ccbd
00000390: 0c75 07bd 9e89 d0bd 68ec ac3d 21d3 02bc
000003a0: 8cb9 5f3d 8f01 963d 52de 2fbc f75b 4f3d
000003b0: cd87 7bbd aa14 c3bd d892 eb3d b92a cd3d
000003c0: baed 103d 8fa1 9bbd de63 323b b16c e73d
000003d0: 679e 4fbd 6e2b d4bb ec8c 573c e937 d5bd
000003e0: 30cb 06be a393 c0bc b35d 1f3d 2ec1 ea3c
000003f0: af3f df3c daed cdbd b43d 8d3d 7883 4abc
0.0010911556 0.06985082 0.114078894 0.10947886 -0.1060674 0.0678082 -0.07252046 0.030771615
-0.06773152 -0.05029251 -0.12468547 -0.028588401 -0.0239611 -0.04524054 -0.10655126 0.045892786
0.041024394 0.115928195 0.0959031 -0.032475114 -0.064682916 -0.015552127 0.08531043 0.026067665
-0.09664526 0.07804218 -0.044176754 0.071233146 -0.06862507 0.018168747 0.11340673 -0.05585389
0.0795964 -0.09556236 -0.10036422 0.08416407 0.08939296 -0.07856885 0.083336644 0.013196077
0.03763323 0.0723375 0.03779517 0.041149743 0.072892755 -0.074491076 -0.109825 -0.044464033
-0.082641535 -0.10356023 -0.118714325 -0.055515114 -0.081993304 -0.07092686 -0.13084173 0.048210055
0.047131628 0.09566012 0.013235789 -0.04213201 -0.058767132 0.06658482 0.10333455 -0.10440962
0.09814635 0.10746773 -0.09358347 0.004772959 0.030082647 0.017498925 0.053438004 -0.12911297
0.058273755 0.078339204 0.07390321 0.09132536 0.032414455 -0.09134225 -0.011550685 0.046657562
-0.0640264 0.00031150458 0.0833003 -0.11130551 -0.10507184 -0.023376612 0.07762857 -0.07376628
-0.07638092 -0.015812142 0.10587412 0.06129632 -0.03649495 -0.040994257 -0.010189417 -0.11481129
0.017565927 -0.06029819 -0.0667838 0.006393054 0.105894186 -0.0066549485 -0.06480749 0.06462171
-0.060947984 -0.114030115 0.034827873 0.07431455 0.08181752 -0.08726384 -0.04207519 -0.087384455
0.115321815 0.044191007 -0.123039044 -0.038296256 -0.025181545 0.10369948 -0.07226121 -0.008840979
-0.12653854 -0.020344539 -0.031572383 0.042276554 -0.0005864731 -0.08240526 -0.08534381 0.070850074
-0.007910495 -0.069241755 0.004580362 -0.10128847 -0.043262396 0.007060277 -0.078807816 -0.070425406
-0.006837961 0.048139248 0.11873532 0.06927564 -0.10658876 0.053531818 -0.10108244 0.036395535
0.105502784 0.06542399 -0.114607066 0.029380431 0.01954558 -0.1103832 0.021834409 -0.059547666
-0.064224854 -0.0078949565 0.117844984 0.0073446953 0.040003523 0.055623736 0.1278713 -0.117295
0.13089085 -0.04785214 0.13339026 0.0985011 -0.007907351 0.020609455 -0.068358906 -0.101797596
0.062361117 -0.08016757 0.09572344 0.10753818 0.087271065 0.008799843 0.0147203505 0.13178508
-0.0917735 0.048715167 0.023341032 -0.094893634 -0.08563455 -0.082318485 0.12259772 0.09252416
0.011976992 0.043121725 -0.08318505 0.096072055 0.06474015 0.117997 0.050536014 0.06856412
0.080429286 -0.12779695 0.0061785723 0.10242685 -0.029137295 -0.07584397 -0.11461349 0.10457211
0.035758927 -0.01947321 0.062155627 -0.009688999 0.058562808 0.11147405 0.04478621 0.05698215
-0.009849833 0.066374026 0.09054904 -0.08700116 0.076937735 -0.044063102 0.0442308 0.082933225
-0.0704549 -0.105267875 -0.07256734 0.018486194 0.005903267 -0.094189726 -0.03751735 -0.12541512
0.09254738 0.010914093 0.084268466 -0.100003086 -0.03307061 -0.101824984 0.084435284 -0.007984907
0.05462031 0.07324516 -0.010734158 0.050624814 -0.061408807 -0.09525426 0.115026176 0.10017914
0.035382964 -0.07599174 0.002722017 0.11300028 -0.050688174 -0.006474904 0.013156157 -0.10411055
-0.13163447 -0.023507899 0.038907718 0.028656568 0.027252046 -0.10055132 0.068965346 -0.012360446

layers.0.message_mlp.2.bias f4 [64]
00000000: d028 51bc f323 ba3d 8a3b 5cbd 18aa 4e3d
00000010: 0b1c e33b 2c92 cebc d602 a4bd 057e 033e
00000020: b278 ce3d 0e93 ee3d df48 b73d 5bbe 60bd
00000030: 67a6 593d 97bd 833c c27f c3bd 4826 c63d
00000040: 5c4c 513d 749b 8ebd 15db 4b3d 2308 883d
00000050: 0fbd 3d3d c9b5 243d d9b8 b03d f0d3 253d
00000060: 6992 30bd b950 d83c 6e16 813d 227a e13d
00000070: 3bd1 13bd 2cca 5abd 89a4 0abd 2643 d8bd
00000080: 3a7c 28bd 1e4e cd3d 1479 f43c 42bc 84bd
00000090: 341c ddbd bfae ec3d 63ab d9bd 18c9 383d
000000a0: dfbf f13c ee2b 423c bf68 8ebd 5855 c4bd
000000b0: 98b7 1fbc c5a6 5f3d c739 8dbd ead7 5b3d
000000c0: da9c 98bc 662f 003c 5ccb 653d 71d7 393c
000000d0: bd9b b2bd e5a2 8a3d 049b b33d 0225 61bc
000000e0: 9629 00bd c5fd 703d bea1 5c3d 4e9a 133c
000000f0: 47e8 043d f94e a5bd c4cd 97bd 96fb b73d
-0.012766078 0.09088888 -0.05376772 0.050455183 0.006930833 -0.025216185 -0.080083534 0.12841041
0.100816146 0.11649142 0.08949446 -0.054869037 0.05313721 0.016081614 -0.09545852 0.0967527
0.051098213 -0.06963244 0.04976948 0.06642177 0.04632288 0.040212426 0.08629007 0.040485322
-0.043108378 0.026405679 0.06303106 0.11009623 -0.03608821 -0.053415462 -0.03384832 -0.105596825
-0.041134097 0.10024665 0.02984289 -0.0648122 -0.10796395 0.11556768 -0.106283925 0.045113653
0.029510437 0.011851294 -0.069535725 -0.095865905 -0.009748362 0.054602403 -0.06895786 0.05367271
-0.01862948 0.007823801 0.05610214 0.011342869 -0.08721111 0.06769351 0.08769801 -0.0137417335
-0.03128966 0.058835763 0.053865187 0.009008957 0.03244808 -0.080717035 -0.074122936 0.08983533

layers.0.update_mlp.0.weight f4 [6, 70]
00000000: 7bd9 2dbd 5373 a93d f521 6abd da6a 973d
00000010: 3a9f 183d 39da 483c 3a95 013d a21e 773d
00000020: 6dcd a6bc 1a7d 023a 8a24 37bd 78a7 a1bd
00000030: 943d c7bd c6f0 a5bd 87f8 bbbd 4e4f 213d
00000040: ffea b53c 3e1c 8abd 331e ac3b 1366 02bd
00000050: 399d f8bd 5082 6d3d ce06 2f3a 73e5 cf3b
00000060: 10b7 853d 4282 51bd b64e bbbd ccb6 a63d
00000070: 4905 e13d b02f 6bbd 5ff5 73bd 1d5c 9cbc
00000080: 7dab 8b3d 3da8 b13d 4e25 023d 2872 6abd
00000090: 061e dabd 2e34 0d3d 39cd 8b3d 554d 6c3b
000000a0: 67c4 c4bd 247d b9bc a450 3a3d 21e2 0f3d
000000b0: 8f6c c53c e7c3 a3bd 3423 d5bd 9861 b23c
000000c0: 5d41 d13d 55a4 a9bd a0c1 e8bd d29d f43c
000000d0: f28d bbbd 83e0 db3d 7a92 b33c ac56 0ebd
000000e0: e485 ac3d 7bea b3bd f736 80bd ce16 413d
000000f0: 0767 85bd 3541 cebc 149d dcbd bb84 84bd
00000100: 905f 2fbd c443 ca3d 3c00 eabd d525 813c
00000110: 31ed ca3d bf1b 5bbd 9add fa3c 36ad f33c
00000120: c76b ea3b 6f8b 87bd 40b7 56bd 7613 973d
00000130: 10f8 953d 7228 2abd e609 39bd 9769 aa3d
00000140: 66cb ebbd ad00 483b 871a da3d 31ef d1bd
00000150: b4cc 9fbb ea5f fdbd 3c82 683d c9b7 67bd
00000160: 719e ad3d 5141 a13c 9fef bdbc 494a 1d3d
00000170: fa51 03bd 97d1 883c e66d ca3d 3df0 cd3c
00000180: 094e d2bd 52b4 7abd 5185 4c3d 3811 26bd
00000190: 33e2 cc3d b079 153d a899 1c3d fe27 06bd
000001a0: 383a 82bd da0a 6fbd 0dff b3bd ff8e 8abd
000001b0: 79fb 0fbd 3bc6 24bd 0a88 89bd 2e58 793c
000001c0: fba2 f43b 0a70 dcbd db10 b73d e83f f6bc
000001d0: d994 24bb fb51 983c cfba b03d bc20 a93d
000001e0: fda6 5dbd ecab d93d a9f7 ffbc 6052 10bd
000001f0: c560 143c cdb1 2a3d 0924 09bd 2011 503d
00000200: a0ba 74bd 4834 a4bd db0d 933d 35ac 923c
00000210: 417b f13b dfbc debd 5df1 89bd 37f9 863d
00000220: 4873 1a3d d891 86bd 4c17 b439 3e23 083c
00000230: 6739 913d 675e 3dbd 023a b1bc 3a54 b13d
00000240: da74 e43c cdfd debd f6a9 633d d8aa ad3d
00000250: 0fdd cbbc 3f68 933c 2459 a4bd 1022 9ebd
00000260: ac2d 823d f85a fcbd 3e28 bbbc b4db 5abd
00000270: c150 23bd 614d 3f3d c74f d1bd ced3 793c
00000280: 4bd5 a63d a341 cb3b 3cca e6bd 700b a7bd
00000290: 545a 14bd 07b4 64bd fe61 973a 5962 02be
000002a0: 9dd5 00be 3638 fe3c 9796 cfbd c802 d23d
000002b0: be60 1a3a dd8a f6bd eb7b cb3b 0cbf 853d
000002c0: ff01 00be 8e67 1ebd 82a6 993c 1a31 c53d
000002d0: 43ad cb3d 64f9 94bb 8f30 44bd 7c60 8a3c
000002e0: e457 b6bd 2aac d63c 23af 2e3c 0b8e 0b3d
000002f0: 756f 8c39 9284 8b3d d3e6 81bd f42a e7bd
00000300: 96f6 afbb eb80 35bd f2ae 98bd 317b e53c
00000310: 0499 03bc 3eca f6bd 0bc4 9abd ba30 c83d
00000320: c5c2 c2bd 529b 893d 8b5f 57bc 2fd6 71bb
00000330: d4a4 ba3d bcea 9bbd db7b 1d3d feee cb3d
00000340: 807b 583c 9188 5b3d 5950 0f3c 1ccb 9ebc
00000350: 1745 be3c 4ddb a83d 0fab 03bd ede6 8cbd
00000360: d076 e63c baf3 73bd fd02 ecbd 5997 e1bc
00000370: c4f3 87bd 3c41 cfbd b097 b2bc a6b1 763c
00000380: c81b c13c d39b 313d b7fa bb3d b2b8 c13c
00000390: 85d8 4fbc a862 7bbc ebaf 14bd 19e7 bbbd
000003a0: 069a bdbd 79ee dcbd 4212 b43d 2598 2dbb
000003b0: 5fbf 8dbd b557 edbd 81bb f9bc 4b00 ac3d
000003c0: e3c6 5a3d 300c d5bb 09f5 37bc 0c6e a3b9
000003d0: 6fec 8dbd 81df 963d f3d1 a63d b864 c8bd
000003e0: a216 a83d e639 3cbd 24af cbbb 1174 f7bb
000003f0: 5084 803d 4970 d53d 49e1 d3bc 104b acbd
-0.042443734 0.082739495 -0.05716129 0.07393427 0.037261225 0.01225906 0.031636454 0.060331948
-0.020361627 0.0004977748 -0.04471258 -0.0789327 -0.09728542 -0.081025645 -0.09178262 0.03938227
0.022206781 -0.06743668 0.0052526235 -0.031835627 -0.12139363 0.057985604 0.0006676734 0.006344491
0.06529057 -0.051149614 -0.09145872 0.081403345 0.10987336 -0.057418525 -0.059560176 -0.019086892
0.06819818 0.08674667 0.031773858 -0.057237774 -0.10650258 0.03447359 0.068262525 0.0036056836
-0.09607773 -0.02264268 0.04548706 0.035127763 0.024099616 -0.0799635 -0.10407105 0.021775052
0.10217545 -0.08283297 -0.11365056 0.02986041 -0.09157933 0.107361816 0.021920431 -0.034750625
0.08423975 -0.08784958 -0.06260484 0.04714089 -0.065137915 -0.025177578 -0.10772148 -0.06470629
-0.042815745 0.098762065 -0.11425826 0.01576511 0.09908522 -0.053493258 0.030623246 0.02974568
0.0071539613 -0.06618392 -0.052420855 0.07376759 0.07322705 -0.041542478 -0.045175456 0.08320921
-0.115134045 0.003051798 0.10649591 -0.102507 -0.0048766974 -0.1237181 0.056764826 -0.056571756
0.08477486 0.019684466 -0.02318555 0.038400922 -0.0320606 0.016701503 0.09884243 0.025138969
-0.1026879 -0.061207123 0.049931828 -0.040543765 0.100040816 0.036493003 0.038232476 -0.032752983
-0.063587606 -0.05835996 -0.087888815 -0.067655556 -0.035151932 -0.04022811 -0.067154005 0.015218778
0.007465718 -0.10763557 0.08938762 -0.03005977 -0.0025113134 0.018593779 0.08629381 0.08258197
-0.05411433 0.106284946 -0.031246023 -0.03523481 0.009056275 0.04167347 -0.03348163 0.05079758
-0.059748292 -0.08017784 0.07180377 0.01790438 0.0073694293 -0.10875868 -0.067354895 0.06590503
0.037707597 -0.06570786 0.00034349633 0.008309184 0.07091027 -0.046232607 -0.021634106 0.08658643
0.02788775 -0.108882524 0.05558201 0.084798515 -0.024885682 0.017994044 -0.08024815 -0.07721341
0.063563675 -0.123220384 -0.022846337 -0.05343218 -0.039871935 0.046704654 -0.102202944 0.015248252
0.08146151 0.006202893 -0.11269042 -0.081564784 -0.036218956 -0.05583575 0.001154959 -0.12732829
-0.12581487 0.031032663 -0.101361446 0.10254437 0.00058890495 -0.12038205 0.0062098405 0.0653058
-0.12500761 -0.038672976 0.018756155 0.09628506 0.099451564 -0.0045463312 -0.04789787 0.01689171
-0.089034826 0.026205141 0.010661873 0.03407101 0.00026785923 0.06812395 -0.06342854 -0.112874895
-0.0053699715 -0.0443124 -0.07455243 0.028012844 -0.008032087 -0.120502934 -0.075569235 0.09774919
-0.095098056 0.06719078 -0.013145338 -0.0036901345 0.0911347 -0.076131314 0.038448196 0.099576935
0.013213038 0.053597037 0.008747184 -0.01938396 0.023226304 0.08244953 -0.032145556 -0.06879983
0.028132826 -0.059558608 -0.115240075 -0.027537988 -0.066382915 -0.10119864 -0.021800846 0.015057003
0.023572817 0.043361496 0.091786794 0.02364764 -0.0126859 -0.015343346 -0.03630058 -0.09174938
-0.09257893 -0.107876725 0.08792545 -0.002648839 -0.06921267 -0.115889944 -0.030484917 0.083984934
0.05341233 -0.006501697 -0.0112278545 -0.00031171774 -0.06929862 0.07366849 0.081455134 -0.097848356
0.08207442 -0.045953654 -0.0062159467 -0.007551678 0.062752366 0.10421807 -0.02586426 -0.084127545

layers.0.update_mlp.0.bias f4 [6]
00000000: dc03 a0bc d552 803d 13ff cbbd 0bbd dabc
00000010: ea04 353d 0608 a43d
-0.01953309 0.06265799 -0.09960761 -0.02670147 0.04419414 0.08009343

layers.1.message_mlp.0.weight f4 [64, 16]
00000000: 90a3 5a2e e92a 20bc ac55 a9bd f893 c5bc
00000010: 65c8 a8bd 6701 8a3b 86f3 162c 7b80 94b9
00000020: e409 4f3e b227 ac3d 26c8 5fbe de4a 75be
00000030: bdf0 c43d 3048 25bd 788f 2bbe 3def e8bd
00000040: f484 a33d af02 283d 052d 4ebd 0396 d9bd
00000050: eb21 e53d 2098 163d 1528 4e3e 3f04 8ebd
00000060: 65cf 56be feb8 733d c750 313d 3d13 6b3d
00000070: 6033 47be cc7c 10be 4363 1d3d b9b6 3c3e
00000080: 9ce7 44bd d9f7 0f3c e2f4 553e 2411 4ebe
00000090: 3530 90bd 28ba d43c 5f54 56be 9e12 1cbe
000000a0: 6b1f c3bd 0497 b03d c86a 333d 18e4 b33d
000000b0: bacb 8cbd ecc4 28be 6e2b 4b3e 932a 2e3e
000000c0: 00aa 6c3e 598f ae3c 81d0 06be 2da9 09be
000000d0: e528 d6bd ba36 4c3e 0b36 303d d144 733e
000000e0: e734 2ebe c16e 72be 5e3f 4cbe 7991 a0bd
000000f0: 0fed 643e b1a4 6f3e 365d b13b 5006 36be
00000100: c7b5 09be c80a a5bd d7b8 0bbe e853 3e3e
00000110: 1cdb 6e3e 8f76 31be e6c7 6d3e a0b7 313d
00000120: b1d0 b63d 45a8 d4bd f0b4 a93d a9f9 5c3e
00000130: 7213 d3bd a611 6ebe 0610 58be f81b 023c
00000140: 4731 b1ba b4df 5fbc a760 6c3d 14c5 d43c
00000150: 72c6 723e 83d7 39bd 0bc7 84ae db0f a0bd
00000160: fad5 823b e965 c1bb d24c b73d 567f 3abe
00000170: 06db 433e 80b1 1cbd f455 7f3c 84ec 23be
00000180: ab53 3f3e a4eb 81bd bc45 b53d cd4c 09bc
00000190: ea10 873d 29cb 493c 7f38 3cbe 9162 58be
000001a0: a609 0e3e 1229 143e 9279 1b3e b43e b5bd
000001b0: 04e4 1d3e 987d 37be a591 d13c d815 19bd
000001c0: 9d14 cb3d ca57 163d 2f94 10bb dee4 0fbe
000001d0: af12 55be 45e4 443e 16da 983d c900 19be
000001e0: 9234 a6bd 8891 0f3e ae95 7b3e 2066 10be
000001f0: 1ec5 aa3d 871a 453e 639f 763d d418 58be
00000200: d6a0 023e 440b c53d 5445 9ebd a374 4f3e
00000210: f8a2 0dbe 114c 163e b806 a8bc e92a b03d
00000220: 2b76 ff3d 9db0 55be da86 303e ad51 2e3c
00000230: 292f 60bd 6b16 223e b7f4 443e 11a5 5c3e
00000240: d0de 163e 15fb 00be 8d69 b63c 1c0c 0d3d
00000250: dbe4 433e fdea 90bd 8b3b 143e d3b8 1dbe
00000260: 3ae0 1bbe 2304 173e 6201 6c3e c6db 1e3e
00000270: 6816 27be 7396 373e 0a36 0ebd 185b 0b3e
00000280: 1996 d23c 0394 30be 46b3 6c3e 82d4 c3bd
00000290: fb68 5b3e ef29 293d 9631 c73d 8e7e 0fbd
000002a0: 3f38 313e 8202 f7bd 6fc6 d7bc 6949 283e
000002b0: 7e36 623e 94f5 7ebe a974 0cbe fe6b c53d
000002c0: 01b4 723e ad71 733d f0fc b7bd 9b96 22be
000002d0: 49a8 29be cab9 da3d f0e6 6b3e 00b9 33bd
000002e0: 5273 b13b 4f38 11be 8e77 acbd f57c 5e3e
000002f0: cb03 053e de6d 093e 71a1 50bd 8adf 57be
00000300: 074c 6a3e b208 603e 6d62 39bc 07e8 1c3e
00000310: d199 183e 326b 213e 2a79 243e df96 583e
00000320: f52e 8b3d 8309 31be a4b5 4bbe 5d2f 733d
00000330: bf52 683e f4e6 2f3e aac2 533e 73cd 3ebe
00000340: 878a 3739 3d6e 9f3d f6e3 533d 30d5 093e
00000350: 642b 0bbe a7a7 bfbd d35e 3ab8 8fed 173e
00000360: afbb 02bd bfd0 903c f798 ee3d d4be fdbd
00000370: ebc4 323e f066 ac3d 6a75 093c 27e2 0bbe
00000380: 0314 263e a832 fdbd be42 77bd c800 383e
00000390: 451a 44be 17d8 813e ad70 61bd 5b0e c93c
000003a0: 65b8 13bc 2da0 883d 3e5d b9bd b114 a43c
000003b0: 8350 1cbe edfb 81bd c941 8cbd 68d7 0d3e
000003c0: 8e35 21be fe07 c03d 0b1a 603e 7798 d63d
000003d0: 3c2f 663e 1283 3c3e c1bb 7a3d f334 ff3d
000003e0: 5b53 90bc bb47 ee3d 8532 273e f7a4 0ebe
000003f0: 95b6 78be ddc9 76be b667 573d b922 f9bc
4.9712734e-11 -0.009775856 -0.08268294 -0.024118409 -0.08241347 0.004211593 2.1451465e-12 -0.00028324485
0.20218617 0.08406009 -0.21853694 -0.23954341 0.0961623 -0.040352046 -0.16753948 -0.11373756
0.07984343 0.041018184 -0.050335903 -0.106243156 0.1118811 0.03676617 0.20132478 -0.06934404
-0.20977552 0.059502594 0.043289926 0.057391394 -0.19453192 -0.14110106 0.03842474 0.18429078
-0.048072442 0.008787119 0.20894197 -0.20123726 -0.07040445 0.025967672 -0.20930623 -0.15241477
-0.09527477 0.08622554 0.043803006 0.0878374 -0.06874795 -0.1648137 0.19840786 0.17008428
0.23111725 0.021308588 -0.13165475 -0.13443442 -0.10457019 0.19942752 0.04302029 0.2375672
-0.17012368 -0.23675062 -0.19946048 -0.07840247 0.22356056 0.23402669 0.005412723 -0.17775846
-0.13448249 -0.08058697 -0.1364473 0.18586695 0.23325771 -0.17330383 0.23220786 0.04338801
0.089265235 -0.10383657 0.08286464 0.21579613 -0.10306443 -0.2324892 -0.21099862 0.007941239
-0.0013518714 -0.013664175 0.057709362 0.02597288 0.23708513 -0.045371544 -6.038022e-11 -0.07815524
0.003992793 -0.005902041 0.08950199 -0.18212637 0.1912652 -0.038255215 0.015584458 -0.16008192
0.1868426 -0.06343773 0.088511914 -0.008380127 0.06595023 0.012316504 -0.18380927 -0.2113135
0.13870868 0.14468792 0.15183094 -0.0884985 0.15419012 -0.17919004 0.025582144 -0.037374347
0.09916041 0.036704816 -0.002206098 -0.1405215 -0.20807908 0.19227703 0.074634716 -0.14941706
-0.08115496 0.1402036 0.24568817 -0.14101458 0.08338378 0.192484 0.060210597 -0.21103221
0.12756667 0.09621289 -0.07728067 0.20259337 -0.13831699 0.14677455 -0.020511016 0.086019345
0.124737106 -0.20868154 0.17238942 0.01063959 -0.054732475 0.15828864 0.19233976 0.21547343
0.14733434 -0.1259578 0.022267127 0.034435377 0.1913027 -0.070760705 0.14475839 -0.15402536
-0.15222254 0.14747672 0.23047403 0.15513524 -0.16317141 0.17928486 -0.034719504 0.13608968
0.025706338 -0.17243962 0.23115262 -0.09562017 0.21426766 0.041299757 0.09726255 -0.0350328
0.17306612 -0.12061025 -0.026339738 0.16434254 0.220911 -0.24898368 -0.13716377 0.096397385
0.23701479 0.05943458 -0.08983791 -0.15877764 -0.16568102 0.10679968 0.23037314 -0.0438776
0.0054153586 -0.14181636 -0.08421241 0.21727355 0.12989728 0.13420817 -0.050935213 -0.21081367
0.22880565 0.21878317 -0.01131497 0.15322886 0.14902426 0.15763548 0.16061845 0.21151303
0.06796066 -0.17288785 -0.19893509 0.05937134 0.22687815 0.17177945 0.20679727 -0.1863306
0.00017503845 0.07784698 0.051731072 0.13460231 -0.13590771 -0.09358149 -4.4434168e-05 0.14836715
-0.03191727 0.017677663 0.116502695 -0.12389913 0.1745793 0.08418071 0.00838981 -0.13660489
0.16218571 -0.123631775 -0.060366385 0.17969048 -0.19150646 0.25360176 -0.055039097 0.024542978
-0.009016131 0.06671176 -0.09050988 0.020029398 -0.15265088 -0.06346879 -0.06848485 0.13851702
-0.15743086 0.093765244 0.21884935 0.10478299 0.22478956 0.18409374 0.061214212 0.12461271
-0.017617872 0.11634775 0.16327865 -0.13930117 -0.242884 -0.24100442 0.05258914 -0.030412065

layers.1.message_mlp.0.bias f4 [64]
00000000: 9606 60be 0a5b 00be 9881 ccbd d54e 76be
00000010: cda5 a93d d97d fc3b 27fa 7ebe 8ab4 963b
00000020: b1a8 17bd 374e 0bbc 2494 6f3c 1315 113e
00000030: 6d9d 533e 3abc eb3d 3bb1 bf3d 0e47 ce3d
00000040: f488 cc3c e019 fbbb b6f8 23bd d308 3f3e
00000050: b7b3 8ebc 082e 673e 4f7f 233e 610b db3d
00000060: 5575 e1bc 8263 f7bc 9e25 61be 8288 44be
00000070: 7406 c1bc d3e5 8b3d da1d 7cbd b25e b03d
00000080: 377d 1cbd a822 603e 9dc0 1b3a 5227 c6bc
00000090: 37c3 55be 1d32 673d bcd0 20bd 4049 163e
000000a0: 4066 28bc 2bed ef3b 84e7 683e 5be2 56bd
000000b0: 44fd 1fbd c1df 93bd e3fe 243e 2df7 19be
000000c0: 75d5 323e d725 6a3d 4b6c 51be e09f 173d
000000d0: f1be 2bbb 8bff 64be 2989 503e 68cd 833d
000000e0: 07a7 c7bd 33a6 513e f98d 08be 738f 57be
000000f0: 13d4 263e 2041 433b 51f7 3c3e 11ce d73c
-0.21877512 -0.12534729 -0.099856555 -0.2405351 0.08283577 0.007705432 -0.24900113 0.0045991587
-0.03702611 -0.008502535 0.014622722 0.14168195 0.20665522 0.11510511 0.09359976 0.10072146
0.024967648 -0.0076629966 -0.04003211 0.1865571 -0.01741968 0.22576153 0.15966533 0.1069553
-0.027521769 -0.030198816 -0.21987006 -0.19192699 -0.023562647 0.06830945 -0.061551906 0.08611812
-0.03820535 0.2188822 0.00059414824 -0.024188671 -0.2087525 0.056444276 -0.039261565 0.1467638
-0.010278285 0.007321974 0.22744566 -0.052461963 -0.039059892 -0.07220412 0.16112857 -0.15035696
0.1746424 0.057164993 -0.20451467 0.037017703 -0.002620634 -0.22363107 0.20364822 0.064356625
-0.09748655 0.20473556 -0.13335408 -0.21050815 0.16291837 0.0029793456 0.18453719 0.026343377

layers.1.message_mlp.2.weight f4 [64, 64]
00000000: 8492 9dbd 8557 84bd 50e9 a3bb ec48 143b
00000010: ff60 d0bd 668c 21bd 1d82 293d 6a19 33bd
00000020: da31 23bc a917 c23d 033f 30bc a418 c0bb
00000030: ff7a c0bd 2b1f 62bd 7301 f1bd 04ce 6c3d
00000040: 3b37 4c3d 7b8f a1bd 956c 1f3d 2eff 923d
00000050: 8c19 a0bc 4e9e 38bd 95e6 3e3d a4bc 7dbd
00000060: 284a cf3d 14d6 813d fc26 76bd eb67 12bd
00000070: b4a1 b6bc 95ae 7cbd 2c9b 99bc 266f 82bd
00000080: 2552 e5bd db5d cfbc fc8f 96bd 9db6 6dbd
00000090: 90ee 8fbd 4383 75bd f23c 4ebc 8c15 afbc
000000a0: 8219 50bd 4ab6 e1bb 43ac 563d c380 643c
000000b0: eab3 d3bc 12aa 873d faab 753d d697 a3bd
000000c0: 576f e23b 5619 393d 05a4 84bd 114f d7bd
000000d0: 3fff cdbd 41ab dc3d 06b8 c4bc 320f 10ba
000000e0: 7bf2 663b 641f bfbd 8238 a1b8 61dc 573d
000000f0: 6ae4 4fbd fcee 7dbb 1f8a 83bd a5ea fa3c
00000100: e881 ac3d 2527 8fbd 71bf e2bd b3b3 c13d
00000110: 3a75 433d 7035 e13d 26ee a53c cf7d 8abd
00000120: 905a e93d 5f8a 0bbd 2585 c53c 51e2 08bd
00000130: 6037 a63b 110b 1d3d 0f6b 89bd 4d07 643c
00000140: c14b efbc 8950 76bd 9b21 3d3d 7b77 67bd
00000150: 6227 53bd 51c5 f43c c5ac ad3d 385b e53d
00000160: e2eb 243d 4959 f4bd 40b1 bcbd 4a4a a5bc
00000170: ae3d 063d d6b2 243d 4f15 853d 49a0 8dbd
00000180: e6d9 c4bd 92d6 89bd 8189 03be 938a 2fbc
00000190: 6cf5 153d 1d50 023e 2f24 d03d 5424 e63d
000001a0: d107 0f3d e690 bbbd b40e 9d3d 5d09 06be
000001b0: 089d 04bd 8a77 fbbd 1388 df3d a527 c43c
000001c0: eed4 0bbd 1226 ed3c 547a 893d 6404 80bd
000001d0: 5c6b c4bd 4eab 80bd ecae b7bd 9cb1 a1bd
000001e0: fe44 563c 08b5 c73d a4c4 de3d 5638 13bd
000001f0: a136 3c3c 4efd 27bd 1b82 adbd f981 9d3b
00000200: 3e2c 97bd 58e0 b2bd d317 e9bd 63c5 d53b
00000210: 9c67 fbbd a5a7 b93c f829 17bc bf58 e53c
00000220: b7f5 f7bd 89ae cebc d04f d6bb a39a 3b3d
00000230: cf7b 8fbd 76c3 94bd 0809 7a3d 895b 313d
00000240: 59e0 fe3c b8cb c73d b3f1 dfbd 177f a43d
00000250: 5d85 873c 7125 d3bd 6320 963b e719 88bd
00000260: 2ccd d8bd 1a5e 7c3c 331f 1e3d a3c1 483d
00000270: 7ac3 cc3d 8e9b af3d 375e 60bd b135 c4bc
00000280: f4d3 83bd fb04 65bc 1b80 a0bd 6685 4b3d
00000290: eabd 15bc 4f1d 1bbc 3021 b8bd 8dcb 7cbc
000002a0: b0a2 ac3d 7247 cd3b 03c2 8fbd b7c1 1abc
000002b0: 16a8 b2bd 716e 08bc 3d12 a73d a8c7 11bd
000002c0: 3165 933d 2503 b23d 45f8 5e3d b109 9b3c
000002d0: b8f8 b4bd c258 27bb 8858 563d 2e2c c53c
000002e0: 5b88 843a be8b 24bd e7b3 553d 9cb0 96bd
000002f0: 78ba 083d 3b21 d13d 8181 bc3d b5d7 b33d
00000300: 98c9 f0bb fcdd 02be 579a 29bc eddd d63d
00000310: d4fa c83d 8806 97bd 9dd0 243d e17e d23d
00000320: 1b94 02be f220 b8bc 1cb1 8b3d 1eae cbbc
00000330: f727 fdbb 7e4c 9cbc d465 79bd 8da5 d2bd
00000340: 2957 5bbd 3fa3 8b3c 8c43 99bd 9f3f a33c
00000350: 438f 643d ff42 80bd b208 153d e3a9 bb3d
00000360: 2ae1 ae3d 5c0f 8cbd eded 9c3d 801d 2bbd
00000370: 07a6 79bd c722 d63d 21a6 8ebd 239a bf3d
00000380: feee 95bd f7c4 283d 4c87 d9b9 0193 90bd
00000390: 1d90 953d 360d 66bc 8fd3 a63d 5754 c8bd
000003a0: 3bcd 36bd 9fee b7bd 6b6f 133d 8194 51bd
000003b0: e745 b9bd 94a0 64bc 2eb5 fbbc a6a8 44bd
000003c0: 360f 19bd 292b 88bd 0b47 593d 819b dd3d
000003d0: f06d 05bc f395 863c 4b2f 5c3d cd55 edbd
000003e0: 5497 0ab9 78ee 923c fc18 e83d 7390 1fbd
000003f0: 8104 af3d 8095 f03c 3913 573d da7d c43d
-0.07693961 -0.064620055 -0.0050021783 0.0022626473 -0.101747505 -0.039440535 0.04138385 -0.04372541
-0.009960616 0.09477169 -0.010757211 -0.0058623124 -0.0939846 -0.055205505 -0.117678545 0.05781366
0.04985736 -0.07888695 0.03892191 0.07177578 -0.019543432 -0.045072846 0.04660662 -0.06194748
0.10121566 0.0633966 -0.060095772 -0.035743635 -0.022293903 -0.061689932 -0.01875075 -0.06368856
-0.111973085 -0.025313308 -0.073516816 -0.05803548 -0.07027924 -0.059939634 -0.012587773 -0.021372579
-0.050805576 -0.0068881856 0.052410375 0.013946715 -0.025842626 0.06624235 0.059978463 -0.07987945
0.0069102454 0.045190178 -0.06476597 -0.105131276 -0.1005845 0.107748516 -0.02401353 -0.00054954283
0.0035239744 -0.09332159 -7.687604e-05 0.052700404 -0.050754942 -0.0038747182 -0.06422829 0.030629465
0.08423215 -0.06989888 -0.11071671 0.09458103 0.047719218 0.109965205 0.02025516 -0.06762277
0.113942266 -0.034067508 0.02411134 -0.033418957 0.005072519 0.038340632 -0.06709873 0.013917756
-0.029210927 -0.060135398 0.046174627 -0.05651043 -0.05155123 0.029879244 0.08480219 0.11199039
0.040264018 -0.11931092 -0.09213495 -0.020177025 0.032773666 0.040209614 0.06498205 -0.069153376
-0.09611873 -0.06730379 -0.12845422 -0.010714191 0.036611006 0.12725873 0.101631515 0.11237398
0.034919564 -0.091584966 0.0766882 -0.1308951 -0.03237632 -0.1227866 0.10914626 0.023944685
-0.034138612 0.028948817 0.06712785 -0.062508374 -0.0959079 -0.06282674 -0.089689106 -0.078952044
0.013077972 0.09751326 0.1087735 -0.035942398 0.011487634 -0.041013055 -0.08472081 0.0048067537
-0.073814854 -0.087341964 -0.11381497 0.0065237745 -0.12275621 0.022662947 -0.009226315 0.027996419
-0.12107413 -0.02522971 -0.006540276 0.04580177 -0.070060365 -0.07263844 0.06104377 0.043300185
0.031112837 0.09755653 -0.10934772 0.08032053 0.016543085 -0.10309876 0.0045814975 -0.066455655
-0.105860084 0.015403295 0.038603973 0.04901279 0.09998222 0.085745916 -0.05477735 -0.023951383
-0.06436911 -0.013978238 -0.07836934 0.049687766 -0.009139517 -0.009467437 -0.08990705 -0.01542939
0.08429468 0.0062646205 -0.07019427 -0.009445599 -0.08723466 -0.0083271125 0.081577756 -0.035590798
0.07197035 0.08692006 0.054435987 0.01892552 -0.08836502 -0.0025535082 0.052330524 0.024068918
0.0010111438 -0.04017233 0.05217352 -0.07357904 0.033380955 0.10211416 0.092043884 0.08781377
-0.0073482506 -0.12779993 -0.010351739 0.10491548 0.09813467 -0.073742926 0.04023801 0.102781065
-0.1275181 -0.022476647 0.0682089 -0.024863299 -0.0077257114 -0.019079443 -0.060888126 -0.102854826
-0.05354992 0.017045615 -0.07483587 0.019927798 0.055800688 -0.062627785 0.036385246 0.09163263
0.085390404 -0.06838867 0.07662568 -0.04177618 -0.06094935 0.10455852 -0.0696528 0.09355571
-0.07320975 0.041203465 -0.0004149027 -0.07059289 0.07302878 -0.014041236 0.0814582 -0.097817115
-0.044629317 -0.0898106 0.03599493 -0.051167015 -0.09046536 -0.0139543 -0.030726042 -0.0480124
-0.037368022 -0.06648857 0.053046267 0.10820676 -0.008143887 0.016428923 0.05375604 -0.11588631
-0.0001321708 0.017935976 0.113328904 -0.038956117 0.08545781 0.029368162 0.052508567 0.09594317

layers.1.message_mlp.2.bias f4 [64]
00000000: 3636 0c3d 3964 51bd 01ee 94bc c316 d2bd
00000010: c34b 853c e73d ebbc 415c bb3c 59ac 96bc
00000020: ca2f e5bd e55a e53d 350b 4ebc 7f47 fcbd
00000030: 9114 9f3d 56fd e2bc 7c4a 843d edf3 dbbd
00000040: 7779 183d 3dfd f7bd e72c a7bc e4b1 a0bd
00000050: 1b07 75bd ec52 e33d 222e d03d 6215 2fbd
00000060: 00bd ab3d ed76 9abc 51d9 44bd e55c f63d
00000070: a86f 1dbd 843e 06bb b718 b9bc b581 b6bd
00000080: 561b 743d 3795 fe3d a5c0 f5bc 0751 60bd
00000090: 2d13 a8bd a54d 273d 5453 6e3d fb14 b2bd
000000a0: b921 303d 2301 dfbd 7402 913d 4e0e 44bd
000000b0: a3c5 1e3d 45e8 b8bd d5f7 d13d 0a8c d8bc
000000c0: 0c9f ccbd 88ab 38bd 795a 34bd 0ac5 423d
000000d0: 2204 973d 1a31 f1ba 82da eb3c 79dd d93d
000000e0: 70ce f13d 45d9 e0bd 66cd f4bc 5c3f 7c3c
000000f0: 8fa2 2e3d 771f 68bd 4d8d 88bd f697 aabd
0.034231387 -0.05112097 -0.018179895 -0.10258248 0.016271478 -0.02871604 0.022871139 -0.018392729
-0.11190756 0.111989774 -0.012575914 -0.12318324 0.077675946 -0.02770869 0.06459519 -0.107398845
0.037225213 -0.12108848 -0.020407153 -0.0784643 -0.05982123 0.110998005 0.10165049 -0.042745
0.08385658 -0.018855536 -0.04805881 0.12029437 -0.03843656 -0.002048404 -0.022594793 -0.089114584
0.059596382 0.12430804 -0.029999087 -0.054764774 -0.082067825 0.040845532 0.058184937 -0.08695408
0.04300091 -0.10888889 0.07080546 -0.047865205 0.0387627 -0.09028677 0.10252348 -0.026433963
-0.09991273 -0.04508546 -0.044031594 0.047551192 0.07373835 -0.0018401474 0.028790716 0.10637946
0.11806953 -0.10978941 -0.029883098 0.015395965 0.042635497 -0.056670632 -0.06667576 -0.083297655

layers.1.update_mlp.0.weight f4 [6, 70]
00000000: bb6e 96bc ac8e bbbd 6709 c9bd 30df f63c
00000010: e7f5 8bbd 9b18 bfbc b40b 493d 1e11 f83d
00000020: d44c 8a3d f9ff d9bd d40b 84bd 8e2c eebc
00000030: c7e8 c83d a7d3 95bd 264a 903d 3dbe 7b3b
00000040: 61e1 e5bd 5867 e7bd 5d6e af3d 8df5 b7bc
00000050: 00f7 ecbc 6199 a8bd de6b 91bd 8921 ec3a
00000060: 07a6 37bd 6c0c a23d 28d3 babd 8be0 d8bc
00000070: af31 03bd 9d4b 533c d06c bdbc 4be0 b33d
00000080: 772d f4bd fe9f b63d 26ad e73b 4f15 4fbc
00000090: a3c1 d735 0814 a2bd 7cae 74bd 1e61 bdbd
000000a0: 400f 7d3d f496 613c be47 d53d 8a09 dc3d
000000b0: 6d9c 553b 9252 943c 23db ce3d 5f95 1c3d
000000c0: e89f 2f3d 42cd f33c ca4a c13c 6ef8 e03c
000000d0: 0176 1abd 799f 352f a3b0 1bbc c056 863c
000000e0: 8b3e ca3d 685a a03c 5d18 4fbc 6c02 b43c
000000f0: f20b 92bd d6e5 89bd ae17 1a3d 8481 bcbd
00000100: 8878 dbbd bffd 92bc c6af b33d 539a 8cbc
00000110: ad3d 9a3d d9c4 c43d 3438 2e31 1d5f 81bd
00000120: 66f6 d9bd 8962 f3bc ac1f e9bd 8f48 c7bb
00000130: bbbf a93d 4818 ebbc a599 bbbd 69cd c63d
00000140: 1e39 883d a8f4 4fbc 4d51 3e3d 645b 1abd
00000150: 5cd5 d03c a107 993d cd8a 383d 43a0 073e
00000160: 2af6 10be 599d dcbc 7bb3 eabd 2fd2 0dbe
00000170: 08fe a7bc c026 db3d 33cd c53d 052c e43b
00000180: 36bf b33d 431a f1bd c061 54bd afb4 a73d
00000190: 9f93 0dbd c1b2 cb3b 1b9d fe3c 342c e1bd
000001a0: 7f82 97bd 28ed c73d 00bf 25bd 4cc0 cc3d
000001b0: 26d5 363c a625 9cbd 0956 e6bd aafc 2f3d
000001c0: 2060 cf3d c804 1dbd 9f81 0cbd 636e f3bd
000001d0: 1ac8 ed3c 9dd6 543b ccd4 c43d 6d7d 2bbd
000001e0: 3a35 66bc 4e46 be3c 7f58 ac3d 0ad6 0c3d
000001f0: 9f81 66bd cd92 64bd 77ba 6c3c 71cd 6d3d
00000200: 3160 f0bd 1134 5abb 53b0 18bc 6df8 3cbc
00000210: 03a8 18bd 91a3 203d 994d 29bd b563 713d
00000220: b8e4 af3d 19a3 4dbc 98fe 7fbd ccff 66bc
00000230: 0b79 89ac 5d9a 7430 c7b6 72ad 3905 1c2e
00000240: 79ac f7ba 77e3 5b35 54d8 20b1 e047 96bb
00000250: da64 9f31 f61b a43b e18e 0d3c 2a70 debb
00000260: 81cd 33b1 218a 4f33 9f5c 1d34 c676 82bb
00000270: 9361 93bc b985 04ae 64b0 07bc 6e9f 19bb
00000280: d457 10ac 69ca d82d cea1 f0ba 4799 3eac
00000290: dda4 2fbc 9833 48ac 915a 45ae 7fb8 47bb
000002a0: 2647 942c 3142 f9bb 3bbe 8ebc 78d6 ecbb
000002b0: 419d 06bc aa99 823c aeb3 12bc 9ede c22e
000002c0: ffab 8c2b d45e febb 6d4d b3bb 818d 5433
000002d0: 92ef 9fb7 5b98 7229 b1b9 6a2e 683b 8eb8
000002e0: 73c6 81bc d6db 32bb e9a2 902f e4fe 7334
000002f0: b732 7fbb 04a3 cbad 0d25 5e39 d1ca 9d31
00000300: 244e 65bc 0d8f 67af df7f 212d 8cf9 05bd
00000310: d74a ffba 661a 9f2d 633d c4ba 8b05 b8bb
00000320: 3e68 8e3a 1c6d 9aad 8b5b 2430 676e 37bc
00000330: 1d65 e9bb e4f9 2e2e 42bf 842e 67f2 e0ae
00000340: 7e72 91ae 9d89 8bbc 49cb b8bc d088 c0bd
00000350: 7ab5 e5bd 4b09 9e3d 33ad edbd 41c6 e3bd
00000360: 717c 013d e97f f4bd de8d 16bb eac3 bfbc
00000370: 17b6 f7bd 6e5b 7cbd 0245 003d 77b9 8a3d
00000380: 7ef9 35bd c457 7bbd 3580 8c3d ff89 803d
00000390: 4fb0 18bb b83d ffbd efc3 a03d 2563 083d
000003a0: e7de 8d3d 865c 143d 608b ce3d ec80 35bd
000003b0: 688f d5bc 6190 9abd 77fc b63b 0d81 de3c
000003c0: 8c7d af3d 8d8a b9bd 202a e03b 61e7 b73c
000003d0: 59ab afbd ead1 24bb 649a 8aac 47e7 1b3d
000003e0: 95f1 9d3d ebe8 923d fe4e f2bc 43da a43d
000003f0: 7b86 bcbb 26b9 c4bd 87b7 263d f058 a53c
-0.018363347 -0.09158072 -0.098162465 0.030135721 -0.068340115 -0.023327162 0.049083427 0.1211264
0.06752935 -0.10644526 -0.064475685 -0.02907398 0.09810024 -0.0731576 0.07045393 0.0038412951
-0.11224628 -0.11299008 0.08565972 -0.022455955 -0.028926373 -0.0823238 -0.07100652 0.0018015365
-0.04483607 0.079125255 -0.09122306 -0.026474258 -0.032029804 0.012896446 -0.023123175 0.08783015
-0.11922734 0.08917235 0.0070702014 -0.012639358 1.6075104e-06 -0.07913977 -0.059736714 -0.09247039
0.06178212 0.0137689 0.10414074 0.10744007 0.0032594458 0.018105779 0.10100391 0.03822839
0.042877108 0.02976096 0.023595233 0.02746221 -0.037710194 1.651851e-10 -0.009502563 0.016398787
0.098752104 0.019574359 -0.012640086 0.021973811 -0.07131185 -0.06733291 0.03762024 -0.09204391
-0.10716349 -0.017943261 0.087737605 -0.017163431 0.07531295 0.09607858 2.535228e-09 -0.063169695
-0.106427 -0.029710071 -0.11382994 -0.0060816477 0.08288523 -0.028698102 -0.09160165 0.09707148
0.06651519 -0.012692608 0.046464253 -0.037684813 0.025492363 0.07472158 0.045054246 0.13244729
-0.14156404 -0.026930498 -0.114600144 -0.1384971 -0.020506874 0.1070075 0.09658279 0.0069632553
0.08776705 -0.11772587 -0.051851034 0.081887595 -0.03456461 0.0062163775 0.031080773 -0.10994759
-0.07397937 0.09762031 -0.040465355 0.09997615 0.011159217 -0.07624368 -0.11246879 0.04296557
0.10125756 -0.038334638 -0.034303304 -0.11886289 0.02902608 0.0032476552 0.096109 -0.041867662
-0.014050776 0.023226883 0.08415317 0.03438381 -0.05627596 -0.055804063 0.014448754 0.058057252
-0.11737097 -0.0033295194 -0.009319383 -0.011533839 -0.037269603 0.03921849 -0.04133377 0.05893298
0.085885465 -0.012551093 -0.06249866 -0.014099073 -3.9072127e-12 8.8986046e-10 -1.3796692e-11 3.5474932e-11
-0.0018896005 8.191486e-07 -2.3406033e-09 -0.004586205 4.6389745e-09 0.005008216 0.008640022 -0.0067882733
-2.6164744e-09 4.832157e-08 1.465546e-07 -0.003981444 -0.017990863 -3.0132095e-11 -0.008281801 -0.0023440975
-2.0512385e-12 2.4646245e-11 -0.0018358768 -2.708571e-12 -0.010720459 -2.845035e-12 -4.4873053e-11 -0.0030474958
4.214312e-12 -0.0076067676 -0.017424693 -0.007227715 -0.008216203 0.015942413 -0.008953972 8.8616434e-11
9.995337e-13 -0.0077627692 -0.0054718764 4.9488794e-08 -1.9065836e-05 5.3866942e-14 5.3370367e-11 -6.782153e-05
-0.015841698 -0.0027291677 2.6309202e-10 2.2723867e-07 -0.003894014 -2.3150822e-11 0.00021185372 4.592359e-09
-0.013995681 -2.106015e-10 9.1801835e-12 -0.03270869 -0.001947726 1.808793e-11 -0.0014971908 -0.005615895
0.0010864807 -1.7556227e-11 5.9792943e-10 -0.011195756 -0.0071226493 3.9784967e-11 6.036639e-11 -1.02294e-10
-6.6141745e-11 -0.017033393 -0.022557871 -0.09401095 -0.112162545 0.07716616 -0.11605301 -0.11121798
0.031612817 -0.119384594 -0.0022972743 -0.023408849 -0.12095278 -0.06161063 0.03131581 0.06773656
-0.044427387 -0.061362997 0.06860391 0.06276321 -0.0023298447 -0.12462944 0.07849871 0.033297677
0.06927281 0.03622105 0.100851774 -0.044312403 -0.026069358 -0.07547069 0.0055842954 0.027161146
0.08568868 -0.090596296 0.006840959 0.022449197 -0.08577604 -0.0025149533 -3.9393367e-12 0.03806236
0.07712094 0.07173332 -0.029578682 0.080494426 -0.005753336 -0.09605627 0.04070237 0.02018401

layers.1.update_mlp.0.bias f4 [6]
00000000: d140 643c 06d1 86bc 9b23 8eb0 9597 2fbd
00000010: c44c 45b9 a7e5 cf3c
0.013931469 -0.016457092 -1.034198e-09 -0.04286917 -0.00018815981 0.025378061
